_________________________________________________________________
Layer (type)                 Output Shape              Param #   
=================================================================
conv2d_1 (Conv2D)            (None, 19, 19, 48)        480       
_________________________________________________________________
conv2d_2 (Conv2D)            (None, 19, 19, 48)        20784     
_________________________________________________________________
flatten_1 (Flatten)          (None, 17328)             0         
_________________________________________________________________
dense_1 (Dense)              (None, 512)               8872448   
_________________________________________________________________
dense_2 (Dense)              (None, 361)               185193    
=================================================================
Total params: 9,078,905
Trainable params: 9,078,905
Non-trainable params: 0
_________________________________________________________________
Train on 170496 samples, validate on 18944 samples
Epoch 1/5

    64/170496 [..............................] - ETA: 8:19:30 - loss: 0.2660 - acc: 0.0000e+00
   512/170496 [..............................] - ETA: 1:02:34 - loss: 0.2637 - acc: 0.0059    
…
