_________________________________________________________________
Layer (type)                 Output Shape              Param #   
=================================================================
conv2d_1 (Conv2D)            (None, 19, 19, 48)        480       
_________________________________________________________________
dropout_1 (Dropout)          (None, 19, 19, 48)        0         
_________________________________________________________________
conv2d_2 (Conv2D)            (None, 19, 19, 48)        20784     
_________________________________________________________________
max_pooling2d_1 (MaxPooling2 (None, 9, 9, 48)          0         
_________________________________________________________________
dropout_2 (Dropout)          (None, 9, 9, 48)          0         
_________________________________________________________________
flatten_1 (Flatten)          (None, 3888)              0         
_________________________________________________________________
dense_1 (Dense)              (None, 361)               1403929   
=================================================================
Total params: 1,425,193
Trainable params: 1,425,193
Non-trainable params: 0
_________________________________________________________________
Train on 170496 samples, validate on 18944 samples
Epoch 1/100

    64/170496 [..............................] - ETA: 9:12:13 - loss: 5.9326 - acc: 0.0000e+00
   448/170496 [..............................] - ETA: 1:19:04 - loss: 5.9440 - acc: 0.0000e+00
…
